nohup: ignoring input
Namespace(batch_size=16, data_dir='.', decay_iter=100, decay_rate=0.95, device_name='cuda:0', epoch_count=10, eval=True, learning_rate=0.0005, model_path='./ckpts/best_ckpt.bin', name='result', output_path='./result', seed=42, sigma=0, test=True, train=True, verbose=0)
----------------------------------------------------------------
        Layer (type)               Output Shape         Param #
================================================================
            Conv3d-1       [-1, 32, 24, 24, 24]         208,576
              ReLU-2       [-1, 32, 24, 24, 24]               0
       BatchNorm3d-3       [-1, 32, 24, 24, 24]              64
            Conv3d-4       [-1, 32, 24, 24, 24]         351,264
              ReLU-5       [-1, 32, 24, 24, 24]               0
       BatchNorm3d-6       [-1, 32, 24, 24, 24]              64
            Conv3d-7       [-1, 32, 24, 24, 24]         351,264
              ReLU-8       [-1, 32, 24, 24, 24]               0
       BatchNorm3d-9       [-1, 32, 24, 24, 24]              64
           Conv3d-10          [-1, 64, 8, 8, 8]         702,528
             ReLU-11          [-1, 64, 8, 8, 8]               0
      BatchNorm3d-12          [-1, 64, 8, 8, 8]             128
        MaxPool3d-13          [-1, 64, 4, 4, 4]               0
           Conv3d-14         [-1, 256, 2, 2, 2]       2,048,256
             ReLU-15         [-1, 256, 2, 2, 2]               0
      BatchNorm3d-16         [-1, 256, 2, 2, 2]             512
           Linear-17                  [-1, 100]         204,900
             ReLU-18                  [-1, 100]               0
      BatchNorm1d-19                  [-1, 100]             200
           Linear-20                    [-1, 2]             202
          Softmax-21                    [-1, 2]               0
================================================================
Total params: 3,868,022
Trainable params: 3,868,022
Non-trainable params: 0
----------------------------------------------------------------
Input size (MB): 8.02
Forward/backward pass size (MB): 31.21
Params size (MB): 14.76
Estimated Total Size (MB): 53.98
----------------------------------------------------------------
None
loading training data
…
